…
============== paths: 1072, labels: 1072 ================
============== paths: 152, labels: 152 ================
No. of training and validation batches are: 536 19
**********Training from scratch**********
Training using single GPU or CPU..
Model: "model"
_________________________________________________________________
Layer (type)                 Output Shape              Param #   
=================================================================
axial (InputLayer)           [(None, 32, 32, 1)]       0         
_________________________________________________________________
conv2d (Conv2D)              (None, 32, 32, 8)         80        
_________________________________________________________________
batch_normalization (BatchNo (None, 32, 32, 8)         32        
_________________________________________________________________
activation (Activation)      (None, 32, 32, 8)         0         
_________________________________________________________________
conv2d_1 (Conv2D)            (None, 32, 32, 8)         584       
_________________________________________________________________
batch_normalization_1 (Batch (None, 32, 32, 8)         32        
_________________________________________________________________
activation_1 (Activation)    (None, 32, 32, 8)         0         
_________________________________________________________________
max_pooling2d (MaxPooling2D) (None, 16, 16, 8)         0         
_________________________________________________________________
conv2d_2 (Conv2D)            (None, 16, 16, 16)        1168      
_________________________________________________________________
batch_normalization_2 (Batch (None, 16, 16, 16)        64        
_________________________________________________________________
activation_2 (Activation)    (None, 16, 16, 16)        0         
_________________________________________________________________
conv2d_3 (Conv2D)            (None, 16, 16, 16)        2320      
_________________________________________________________________
batch_normalization_3 (Batch (None, 16, 16, 16)        64        
_________________________________________________________________
activation_3 (Activation)    (None, 16, 16, 16)        0         
_________________________________________________________________
max_pooling2d_1 (MaxPooling2 (None, 8, 8, 16)          0         
_________________________________________________________________
conv2d_4 (Conv2D)            (None, 8, 8, 32)          4640      
_________________________________________________________________
batch_normalization_4 (Batch (None, 8, 8, 32)          128       
_________________________________________________________________
activation_4 (Activation)    (None, 8, 8, 32)          0         
_________________________________________________________________
conv2d_5 (Conv2D)            (None, 8, 8, 32)          9248      
_________________________________________________________________
batch_normalization_5 (Batch (None, 8, 8, 32)          128       
_________________________________________________________________
activation_5 (Activation)    (None, 8, 8, 32)          0         
_________________________________________________________________
max_pooling2d_2 (MaxPooling2 (None, 4, 4, 32)          0         
_________________________________________________________________
flatten (Flatten)            (None, 512)               0         
_________________________________________________________________
dense (Dense)                (None, 256)               131328    
_________________________________________________________________
dropout (Dropout)            (None, 256)               0         
_________________________________________________________________
output_node (Dense)          (None, 1)                 257       
=================================================================
Total params: 150,073
Trainable params: 149,849
Non-trainable params: 224
_________________________________________________________________
None
Epoch 1/25
  1/536 [..............................] - ETA: 42:34 - loss: 0.5972 - acc: 0.6250 - sensitivity: 0.5000 - specificity: 0.7500
…
