…
============== paths: 1192, labels: 1192 ================
============== paths: 1515, labels: 1515 ================
No. of training and validation batches are: 149 47
**********Training from scratch**********
Training using single GPU or CPU..
Model: "model"
_________________________________________________________________
Layer (type)                 Output Shape              Param #   
=================================================================
axial (InputLayer)           [(None, 32, 32, 1)]       0         
_________________________________________________________________
conv2d (Conv2D)              (None, 32, 32, 8)         80        
_________________________________________________________________
batch_normalization (BatchNo (None, 32, 32, 8)         32        
_________________________________________________________________
activation (Activation)      (None, 32, 32, 8)         0         
_________________________________________________________________
conv2d_1 (Conv2D)            (None, 32, 32, 8)         584       
_________________________________________________________________
batch_normalization_1 (Batch (None, 32, 32, 8)         32        
_________________________________________________________________
activation_1 (Activation)    (None, 32, 32, 8)         0         
_________________________________________________________________
max_pooling2d (MaxPooling2D) (None, 16, 16, 8)         0         
_________________________________________________________________
conv2d_2 (Conv2D)            (None, 16, 16, 16)        1168      
_________________________________________________________________
batch_normalization_2 (Batch (None, 16, 16, 16)        64        
_________________________________________________________________
activation_2 (Activation)    (None, 16, 16, 16)        0         
_________________________________________________________________
conv2d_3 (Conv2D)            (None, 16, 16, 16)        2320      
_________________________________________________________________
batch_normalization_3 (Batch (None, 16, 16, 16)        64        
_________________________________________________________________
activation_3 (Activation)    (None, 16, 16, 16)        0         
_________________________________________________________________
max_pooling2d_1 (MaxPooling2 (None, 8, 8, 16)          0         
_________________________________________________________________
conv2d_4 (Conv2D)            (None, 8, 8, 32)          4640      
_________________________________________________________________
batch_normalization_4 (Batch (None, 8, 8, 32)          128       
_________________________________________________________________
activation_4 (Activation)    (None, 8, 8, 32)          0         
_________________________________________________________________
conv2d_5 (Conv2D)            (None, 8, 8, 32)          9248      
_________________________________________________________________
batch_normalization_5 (Batch (None, 8, 8, 32)          128       
_________________________________________________________________
activation_5 (Activation)    (None, 8, 8, 32)          0         
_________________________________________________________________
max_pooling2d_2 (MaxPooling2 (None, 4, 4, 32)          0         
_________________________________________________________________
flatten (Flatten)            (None, 512)               0         
_________________________________________________________________
dense (Dense)                (None, 256)               131328    
_________________________________________________________________
dropout (Dropout)            (None, 256)               0         
_________________________________________________________________
output_node (Dense)          (None, 1)                 257       
=================================================================
Total params: 150,073
Trainable params: 149,849
Non-trainable params: 224
_________________________________________________________________
None
Epoch 1/15
  1/149 [..............................] - ETA: 1:24:40 - loss: 0.8983 - accuracy: 0.5938 - sensitivity: 0.4375 - specificity: 0.7500
…
axial (InputLayer)              [(None, 32, 32, 1)]  0                                            
__________________________________________________________________________________________________
sagittal (InputLayer)           [(None, 32, 32, 1)]  0                                            
__________________________________________________________________________________________________
coronal (InputLayer)            [(None, 32, 32, 1)]  0                                            
__________________________________________________________________________________________________
conv2d (Conv2D)                 (None, 32, 32, 8)    80          axial[0][0]                      
__________________________________________________________________________________________________
conv2d_6 (Conv2D)               (None, 32, 32, 8)    80          sagittal[0][0]                   
__________________________________________________________________________________________________
conv2d_12 (Conv2D)              (None, 32, 32, 8)    80          coronal[0][0]                    
__________________________________________________________________________________________________
batch_normalization (BatchNorma (None, 32, 32, 8)    32          conv2d[0][0]                     
__________________________________________________________________________________________________
batch_normalization_6 (BatchNor (None, 32, 32, 8)    32          conv2d_6[0][0]                   
__________________________________________________________________________________________________
batch_normalization_12 (BatchNo (None, 32, 32, 8)    32          conv2d_12[0][0]                  
__________________________________________________________________________________________________
activation (Activation)         (None, 32, 32, 8)    0           batch_normalization[0][0]        
__________________________________________________________________________________________________
activation_6 (Activation)       (None, 32, 32, 8)    0           batch_normalization_6[0][0]      
__________________________________________________________________________________________________
activation_12 (Activation)      (None, 32, 32, 8)    0           batch_normalization_12[0][0]     
__________________________________________________________________________________________________
conv2d_1 (Conv2D)               (None, 32, 32, 8)    584         activation[0][0]                 
__________________________________________________________________________________________________
conv2d_7 (Conv2D)               (None, 32, 32, 8)    584         activation_6[0][0]               
__________________________________________________________________________________________________
conv2d_13 (Conv2D)              (None, 32, 32, 8)    584         activation_12[0][0]              
__________________________________________________________________________________________________
batch_normalization_1 (BatchNor (None, 32, 32, 8)    32          conv2d_1[0][0]                   
__________________________________________________________________________________________________
batch_normalization_7 (BatchNor (None, 32, 32, 8)    32          conv2d_7[0][0]                   
__________________________________________________________________________________________________
batch_normalization_13 (BatchNo (None, 32, 32, 8)    32          conv2d_13[0][0]                  
__________________________________________________________________________________________________
activation_1 (Activation)       (None, 32, 32, 8)    0           batch_normalization_1[0][0]      
__________________________________________________________________________________________________
activation_7 (Activation)       (None, 32, 32, 8)    0           batch_normalization_7[0][0]      
__________________________________________________________________________________________________
activation_13 (Activation)      (None, 32, 32, 8)    0           batch_normalization_13[0][0]     
__________________________________________________________________________________________________
max_pooling2d (MaxPooling2D)    (None, 16, 16, 8)    0           activation_1[0][0]               
__________________________________________________________________________________________________
max_pooling2d_3 (MaxPooling2D)  (None, 16, 16, 8)    0           activation_7[0][0]               
__________________________________________________________________________________________________
max_pooling2d_6 (MaxPooling2D)  (None, 16, 16, 8)    0           activation_13[0][0]              
__________________________________________________________________________________________________
conv2d_2 (Conv2D)               (None, 16, 16, 16)   1168        max_pooling2d[0][0]              
__________________________________________________________________________________________________
conv2d_8 (Conv2D)               (None, 16, 16, 16)   1168        max_pooling2d_3[0][0]            
__________________________________________________________________________________________________
conv2d_14 (Conv2D)              (None, 16, 16, 16)   1168        max_pooling2d_6[0][0]            
__________________________________________________________________________________________________
batch_normalization_2 (BatchNor (None, 16, 16, 16)   64          conv2d_2[0][0]                   
__________________________________________________________________________________________________
batch_normalization_8 (BatchNor (None, 16, 16, 16)   64          conv2d_8[0][0]                   
__________________________________________________________________________________________________
batch_normalization_14 (BatchNo (None, 16, 16, 16)   64          conv2d_14[0][0]                  
__________________________________________________________________________________________________
activation_2 (Activation)       (None, 16, 16, 16)   0           batch_normalization_2[0][0]      
__________________________________________________________________________________________________
activation_8 (Activation)       (None, 16, 16, 16)   0           batch_normalization_8[0][0]      
__________________________________________________________________________________________________
activation_14 (Activation)      (None, 16, 16, 16)   0           batch_normalization_14[0][0]     
__________________________________________________________________________________________________
conv2d_3 (Conv2D)               (None, 16, 16, 16)   2320        activation_2[0][0]               
__________________________________________________________________________________________________
conv2d_9 (Conv2D)               (None, 16, 16, 16)   2320        activation_8[0][0]               
__________________________________________________________________________________________________
conv2d_15 (Conv2D)              (None, 16, 16, 16)   2320        activation_14[0][0]              
__________________________________________________________________________________________________
batch_normalization_3 (BatchNor (None, 16, 16, 16)   64          conv2d_3[0][0]                   
__________________________________________________________________________________________________
batch_normalization_9 (BatchNor (None, 16, 16, 16)   64          conv2d_9[0][0]                   
__________________________________________________________________________________________________
batch_normalization_15 (BatchNo (None, 16, 16, 16)   64          conv2d_15[0][0]                  
__________________________________________________________________________________________________
activation_3 (Activation)       (None, 16, 16, 16)   0           batch_normalization_3[0][0]      
__________________________________________________________________________________________________
activation_9 (Activation)       (None, 16, 16, 16)   0           batch_normalization_9[0][0]      
__________________________________________________________________________________________________
activation_15 (Activation)      (None, 16, 16, 16)   0           batch_normalization_15[0][0]     
__________________________________________________________________________________________________
max_pooling2d_1 (MaxPooling2D)  (None, 8, 8, 16)     0           activation_3[0][0]               
__________________________________________________________________________________________________
max_pooling2d_4 (MaxPooling2D)  (None, 8, 8, 16)     0           activation_9[0][0]               
__________________________________________________________________________________________________
max_pooling2d_7 (MaxPooling2D)  (None, 8, 8, 16)     0           activation_15[0][0]              
__________________________________________________________________________________________________
conv2d_4 (Conv2D)               (None, 8, 8, 32)     4640        max_pooling2d_1[0][0]            
__________________________________________________________________________________________________
conv2d_10 (Conv2D)              (None, 8, 8, 32)     4640        max_pooling2d_4[0][0]            
__________________________________________________________________________________________________
conv2d_16 (Conv2D)              (None, 8, 8, 32)     4640        max_pooling2d_7[0][0]            
__________________________________________________________________________________________________
batch_normalization_4 (BatchNor (None, 8, 8, 32)     128         conv2d_4[0][0]                   
__________________________________________________________________________________________________
batch_normalization_10 (BatchNo (None, 8, 8, 32)     128         conv2d_10[0][0]                  
__________________________________________________________________________________________________
batch_normalization_16 (BatchNo (None, 8, 8, 32)     128         conv2d_16[0][0]                  
__________________________________________________________________________________________________
activation_4 (Activation)       (None, 8, 8, 32)     0           batch_normalization_4[0][0]      
__________________________________________________________________________________________________
activation_10 (Activation)      (None, 8, 8, 32)     0           batch_normalization_10[0][0]     
__________________________________________________________________________________________________
activation_16 (Activation)      (None, 8, 8, 32)     0           batch_normalization_16[0][0]     
__________________________________________________________________________________________________
conv2d_5 (Conv2D)               (None, 8, 8, 32)     9248        activation_4[0][0]               
__________________________________________________________________________________________________
conv2d_11 (Conv2D)              (None, 8, 8, 32)     9248        activation_10[0][0]              
__________________________________________________________________________________________________
conv2d_17 (Conv2D)              (None, 8, 8, 32)     9248        activation_16[0][0]              
__________________________________________________________________________________________________
batch_normalization_5 (BatchNor (None, 8, 8, 32)     128         conv2d_5[0][0]                   
__________________________________________________________________________________________________
batch_normalization_11 (BatchNo (None, 8, 8, 32)     128         conv2d_11[0][0]                  
__________________________________________________________________________________________________
batch_normalization_17 (BatchNo (None, 8, 8, 32)     128         conv2d_17[0][0]                  
__________________________________________________________________________________________________
activation_5 (Activation)       (None, 8, 8, 32)     0           batch_normalization_5[0][0]      
__________________________________________________________________________________________________
activation_11 (Activation)      (None, 8, 8, 32)     0           batch_normalization_11[0][0]     
__________________________________________________________________________________________________
activation_17 (Activation)      (None, 8, 8, 32)     0           batch_normalization_17[0][0]     
__________________________________________________________________________________________________
max_pooling2d_2 (MaxPooling2D)  (None, 4, 4, 32)     0           activation_5[0][0]               
__________________________________________________________________________________________________
max_pooling2d_5 (MaxPooling2D)  (None, 4, 4, 32)     0           activation_11[0][0]              
__________________________________________________________________________________________________
max_pooling2d_8 (MaxPooling2D)  (None, 4, 4, 32)     0           activation_17[0][0]              
__________________________________________________________________________________________________
flatten (Flatten)               (None, 512)          0           max_pooling2d_2[0][0]            
__________________________________________________________________________________________________
flatten_1 (Flatten)             (None, 512)          0           max_pooling2d_5[0][0]            
__________________________________________________________________________________________________
flatten_2 (Flatten)             (None, 512)          0           max_pooling2d_8[0][0]            
__________________________________________________________________________________________________
add (Add)                       (None, 512)          0           flatten[0][0]                    
                                                                 flatten_1[0][0]                  
                                                                 flatten_2[0][0]                  
__________________________________________________________________________________________________
dense (Dense)                   (None, 256)          131328      add[0][0]                        
__________________________________________________________________________________________________
dropout (Dropout)               (None, 256)          0           dense[0][0]                      
__________________________________________________________________________________________________
output_node (Dense)             (None, 1)            257         dropout[0][0]                    
==================================================================================================
Total params: 187,049
Trainable params: 149,849
Non-trainable params: 37,200
__________________________________________________________________________________________________
None
**********Training from scratch**********
Training using single GPU or CPU..
Model: "model_3"
…
